models/hey_cal.onnx (onnx, 415224 bytes, 9 tensors)

layer1.weight f4 [64, 1536]
0	0x3c2a1a6d	0.010382277
1	0xbc8640a7	-0.01638825
2	0xbcc50480	-0.024049997
3	0xbad696bb	-0.0016371825
4	0x3d0dd8a0	0.034630418
5	0xbc6e1b82	-0.014532926
6	0x3ca11ab4	0.019666053
7	0xbc529c5b	-0.012854661
8	0x3c923336	0.017846685
9	0xbc176137	-0.009239486
10	0xbc5674c3	-0.013089362
11	0xbbfa167e	-0.007632076
12	0xbc0444e8	-0.008073069
13	0x3c3d4e0f	0.011554255
14	0xbd46a886	-0.04850056
15	0x3c8faff3	0.017539954
16	0x3c3973c2	0.011319103
17	0x3d142372	0.036166616
18	0xbb1b830f	-0.002372924
19	0xba9fe7c9	-0.0012199815
20	0xbd7f1493	-0.06227548
21	0x3b3bac31	0.002863657
22	0xbc7c36ef	-0.015393957
23	0xbd37e622	-0.044897206
24	0xbc431532	-0.011906909
25	0x3b61a8f8	0.0034432989
26	0xbc44ccd8	-0.012011729
27	0x3bb998d8	0.0056639723
28	0x3b00c661	0.0019649493
29	0xbd0fc30e	-0.035098128
30	0xbcf37969	-0.029720979
31	0xbc851c3f	-0.01624882
32	0xbc8c2a95	-0.017110148
33	0xbd29874d	-0.0413888
34	0xbc163beb	-0.009169559
35	0x3c782b41	0.015147031
36	0xbc469d8f	-0.012122526
37	0x3d1834da	0.03715978
38	0xbd33cf8b	-0.0438991
39	0x3b92b3eb	0.0044770143
40	0xbbd1d3c8	-0.00640342
41	0xbc1ec74d	-0.009691072
42	0xbc979488	-0.018503442
43	0xbb9e1435	-0.004824186
44	0xbc45ba8f	-0.012068405
45	0xbd277319	-0.04088125
46	0xbd164768	-0.036689192
47	0x3a85c10b	0.0010204626
48	0x3c1f8841	0.009737075
49	0x3d0017bc	0.031272635
50	0xbc641b88	-0.01392258
51	0x3b4f766a	0.0031656274
52	0xbb8d6126	-0.0043145595
53	0xbb5d8c5b	-0.0033805582
54	0xbce742ef	-0.028230159
55	0xbc473498	-0.012158535
56	0xbba9312a	-0.0051633315
57	0x3b8edbfb	0.00435972
58	0xbc759f83	-0.014991644
59	0x3c8fefd3	0.017570412
60	0x3bc22af3	0.00592553
61	0xbba36ffe	-0.0049877157
62	0x3d23876a	0.039924063
63	0xbc3b6236	-0.0114369895
64	0x3c943ace	0.018094447
65	0x3c847805	0.016170511
66	0x3ba9e046	0.005184206
67	0x3c34297f	0.010996222
68	0xbd445983	-0.047936928
69	0xbc7841bf	-0.015152394
70	0xbbb45ebf	-0.0055044587
71	0xba2f9ccc	-0.0006699085
72	0x3cb4b4f9	0.02205895
73	0xbcfa508f	-0.030555991
74	0x3c0bd142	0.008533778
75	0x3cf92edb	0.03041785
76	0xbc6bf1a8	-0.014400877
77	0xbce747c1	-0.028232457
78	0x3b82d1ce	0.003992296
79	0xbcc74ca9	-0.024328547
80	0x3c9803c7	0.018556489
81	0x3b87a481	0.0041394834
82	0xbb9fb211	-0.004873522
83	0x3c405567	0.0117391115
84	0x3b8a602c	0.0042228904
85	0xbcaed6a9	-0.021342592
86	0xbbd5ec9d	-0.0065284506
87	0xbc8a9141	-0.016914966
88	0xbcb128f2	-0.02162597
89	0x3cb4ef01	0.022086622
90	0x3bbecacd	0.0058225156
91	0xbb7ea40b	-0.0038855101
92	0x3bc0312f	0.005865238
93	0x3cbd7dfc	0.023131363
94	0x3cd6f5a7	0.026240183
95	0xbc029fa2	-0.00797263
96	0xbc00f0ba	-0.007869894
97	0x3c231249	0.00995309
98	0xbcf96585	-0.030443916
99	0x3c166a5b	0.009180631
100	0x3d1d6ac2	0.03843189
101	0x3bc6d26e	0.0060675656
102	0x3c0ebfc2	0.008712711
103	0xbc936992	-0.017994676
104	0x3c260e85	0.010135298
105	0x3cf00446	0.029298913
106	0xbc6e4f5d	-0.014545289
107	0x3cc21695	0.023692409
108	0x3c6b75f4	0.014371384
109	0x3d20ce76	0.039259396
110	0xbb9ccbdc	-0.004785044
111	0x3c76306c	0.015026193
112	0xbd17d0ad	-0.037064243
113	0x3ca7fe3f	0.020506976
114	0x3ccb7f88	0.024841085
115	0xbcc21c2c	-0.023695074
116	0xbc9c83b3	-0.019105768
117	0x3c5b98cf	0.013403132
118	0xbc2438e9	-0.010023334
119	0xbd2f993e	-0.042870753
120	0x3bfe61f6	0.0077631427
121	0x3b1cf5ca	0.0023950213
122	0x3c81245d	0.01576441
123	0xbbfecd82	-0.0077759633
124	0x3d4899af	0.04897469
125	0xbc93b6b2	-0.018031452
126	0xbcb04ef0	-0.021522015
127	0xbc2fc065	-0.010727023
128	0xbd102fa2	-0.035201676
129	0xbbc5b0e4	-0.00603305
130	0x3bd3c716	0.006462942
131	0xbca4f267	-0.020135118
132	0xbb5baea7	-0.003352085
133	0x3cc8404f	0.024444727
134	0xbacfac70	-0.0015844237
135	0x3ccd9e1c	0.025099806
136	0x3b93fd58	0.004516285
137	0x3cc4f832	0.02404413
138	0xbca1f9c2	-0.019772414
139	0x3c12d8bc	0.008962806
140	0xbcc3a6f8	-0.023883328
141	0xbcb3873f	-0.021915076
142	0xbc8ab7b5	-0.016933301
143	0xbbda47bd	-0.006661384
144	0x39d52a30	0.00040657958
145	0x3c49008f	0.0122682
146	0x3c4fffe6	0.012695288
147	0x3d1e95bc	0.038717017
148	0xbd110686	-0.03540661
149	0xbb5f869b	-0.003410733
150	0x3b51850e	0.0031970176
151	0x3c094b35	0.008379747
152	0xbbaf4304	-0.005348565
153	0x3cc9eb8f	0.024648456
154	0xbca6f716	-0.020381492
155	0x3c872fc1	0.016502263
156	0x3c1c5857	0.009542546
157	0xbb3a9889	-0.0028472266
158	0xbb37c13c	-0.002803876
159	0x3b1f3491	0.0024292807
160	0x3c007a1a	0.007841611
161	0xbc1d7db2	-0.009612488
162	0xbbec592f	-0.00721278
163	0x3c87cad2	0.016576204
164	0xbc066153	-0.008201915
165	0x3a20c30e	0.0006132581
166	0xbc9d61ad	-0.019211615
167	0x3d1c6073	0.03817792
168	0x3c57c8ca	0.01317043
169	0xbcbaf46f	-0.022821633
170	0x3c21c32e	0.009873195
171	0x3c284407	0.010270125
172	0xbd431e4f	-0.047636326
173	0xbcf6d5ce	-0.030131247
174	0xbcab3ff4	-0.020904519
175	0xbbbeb2bb	-0.005819646
176	0x3ceaacd4	0.028646864
177	0xbb0ed16a	-0.00217923
178	0x3ce99d41	0.028517367
179	0xba0ebe7b	-0.0005445254
180	0x3c42298c	0.011850726
181	0x3c92cf23	0.017921036
182	0xbd3b0ea5	-0.045668263
183	0x3c551885	0.013006334
184	0x3a5068a1	0.0007950161
185	0xbc915ae0	-0.017743528
186	0x3cba2261	0.022721471
187	0xbc4134e7	-0.011792398
188	0x3a87d584	0.0010363315
189	0x3c4a85c4	0.012360994
190	0x3c126757	0.008935771
191	0xbab427a1	-0.001374472
192	0x3cc0d03c	0.023536794
193	0x3d187f75	0.037230927
194	0xbc7f9ca3	-0.01560131
195	0xbbbce3e5	-0.005764472
196	0x3d219a49	0.03945378
197	0xbc18c4f8	-0.009324305
198	0xbbdd3d06	-0.0067516593
199	0xbcb52878	-0.022114024
200	0xb9d524b3	-0.0004065387
201	0xb9b68283	-0.00034810984
202	0xbce398fb	-0.027782908
203	0x3c1cb4fa	0.009564633
204	0x3c802bba	0.01564585
205	0x3d5af61e	0.053457372
206	0x3ba7091e	0.0050975224
207	0xbb922705	-0.004460218
208	0xbc3c8f90	-0.011508837
209	0x3ccc4a1d	0.024937684
210	0x3d532b2a	0.051554836
211	0x3b506eb2	0.003180426
212	0xbd1063b1	-0.035251323
213	0x3c4c83da	0.012482608
214	0xbb40b16e	-0.0029402631
215	0xbcdb7f65	-0.026794145
216	0x3ba42a1d	0.005009903
217	0x3ca63f1c	0.020293765
218	0xbbccc6a9	-0.006249268
219	0xbbe21890	-0.0068999007
220	0x3c6b59b9	0.014364653
221	0xbbdbacc9	-0.006703947
222	0xbb9255e6	-0.0044658063
223	0x3c005ac7	0.007834143
224	0xbb9023d6	-0.004398803
225	0x3c94d970	0.018170089
226	0x3d0a52e7	0.033770468
227	0x3b9a2083	0.0047035827
228	0xbc18512e	-0.0092966985
229	0x3c2ab9bd	0.01042026
230	0xbcd890aa	-0.026436169
231	0x3d042d09	0.03226951
232	0xbc41159a	-0.011784935
233	0x3c6a4fd9	0.014301264
234	0x3ce90d5f	0.028448759
235	0x3b9f4d51	0.0048615118
236	0xbc72a15f	-0.014808982
237	0xbc92c4c0	-0.017916083
238	0xbc070ef0	-0.0082433075
239	0x3c9ea06b	0.019363603
240	0xbc04b5d5	-0.008099993
241	0x396d2bab	0.00022618349
242	0x3c01690c	0.00789858
243	0x3cdb98d3	0.02680627
244	0xbc4b4b10	-0.012408033
245	0x3cd7684d	0.026294852
246	0x3b6e11c0	0.0036326498
247	0x3c6fae8b	0.014629017
248	0xbc708b2d	-0.01468162
249	0x3b16bdd0	0.002300132
250	0xbd09bb81	-0.033626083
251	0xbcddfe07	-0.027098669
252	0x3d092ca4	0.03348984
253	0x3cc4d321	0.024026455
254	0x3c5676c7	0.013089842
255	0x3c154909	0.009111651

layer1.bias f4 [64]
0	0x3cba6054	0.022751011
1	0x3c141079	0.0090371305
2	0x3c5dbf83	0.0135344295
3	0x3bf7e8ac	0.0075655784
4	0x3cacfbb5	0.021116117
5	0xbcc12101	-0.023575308
6	0x39573c99	0.00020526572
7	0x3c9520b1	0.018204065
8	0x3a8b0bb6	0.0010608349
9	0xbb870262	-0.004120157
10	0x3c096b8c	0.008387458
11	0x3c6ade6d	0.014335257
12	0x3c1b64a0	0.00948444
13	0x3d0779c8	0.033075124
14	0xbbcfb568	-0.006338764
15	0xbc4df176	-0.012569776
16	0xbca60ca3	-0.020269698
17	0xbb7d3d9b	-0.0038641456
18	0xbc7f8d97	-0.0155977225
19	0x3d1306f9	0.03589532
20	0x39d86b33	0.000412786
21	0xbbbc6128	-0.0057488866
22	0x3d0bd6d0	0.034140408
23	0x3a80ee77	0.0009836693
24	0x392f6422	0.00016726603
25	0x3c230da2	0.009951981
26	0x3c57017e	0.013122914
27	0xbc4674ec	-0.012112837
28	0x3bf79941	0.007556111
29	0x3cd37cf6	0.025816422
30	0xbcbf6865	-0.023365209
31	0x3ca8ef21	0.020621838
32	0xb87019b3	-5.7244393e-05
33	0xbb0d57c0	-0.0021567196
34	0x3c5cf18c	0.013485324
35	0x3cc8bb4d	0.024503374
36	0x3b2675a6	0.0025399714
37	0xbc098a22	-0.00839475
38	0x3d14c3c7	0.03631952
39	0x3c83365c	0.016017132
40	0xbc833910	-0.01601842
41	0xbc879d2c	-0.016554438
42	0xbcaf1523	-0.021372383
43	0x3d000f0a	0.031264342
44	0xbc55dc30	-0.013052985
45	0xbc06c29c	-0.008225109
46	0x3c90c6a3	0.017672842
47	0xbc253339	-0.010083013
48	0xbc52aca6	-0.012858545
49	0x3b0275b3	0.001990658
50	0xbbee66c7	-0.0072754356
51	0x3a604cd2	0.0008556369
52	0xbcc3ca02	-0.023900036
53	0xbb55dcba	-0.0032632784
54	0xbc9d0635	-0.019167999
55	0x3d092f18	0.033492178
56	0xbbe7f063	-0.007078217
57	0x3c387d21	0.011260302
58	0x3ca5ff60	0.020263374
59	0x3cd8aef8	0.02645062
60	0x3b3ea3a7	0.0029089244
61	0xbbfcf750	-0.0077199116
62	0xbbfb2ab2	-0.007665002
63	0xbc4bac7e	-0.012431262

layernorm1.weight f4 [64]
0	0x3f799740	0.97496414
1	0x3f83fa6e	1.03108
2	0x3f7fb544	0.99885964
3	0x3f7f70e4	0.9978163
4	0x3f7e3dd4	0.9931309
5	0x3f83226b	1.0244879
6	0x3f8fc0b7	1.1230687
7	0x3f82e0b5	1.0224825
8	0x3f7896c7	0.9710507
9	0x3f809f3c	1.0048594
10	0x3f84a6e7	1.0363435
11	0x3f81eeb1	1.0150968
12	0x3f7f0cc3	0.9962885
13	0x3f7db83a	0.9910923
14	0x3f810ba1	1.0081674
15	0x3f8b778e	1.089586
16	0x3f8030f5	1.001494
17	0x3f7f4416	0.99713266
18	0x3f7ca6e5	0.9869216
19	0x3f7b0a37	0.9806246
20	0x3f808629	1.0040942
21	0x3f80cd6d	1.0062691
22	0x3f86450c	1.0489821
23	0x3f839acc	1.0281615
24	0x3f7ea686	0.99472845
25	0x3f7569e4	0.958647
26	0x3f78c7bd	0.97179776
27	0x3f83ef7a	1.0307457
28	0x3f78edab	0.9723765
29	0x3f85f1ac	1.0464377
30	0x3f7a6fc1	0.9782677
31	0x3f8261c6	1.0186088
32	0x3f835167	1.0259217
33	0x3f756cd5	0.9586919
34	0x3f79acf5	0.97529536
35	0x3f80ea46	1.0071495
36	0x3f85e8c6	1.0461662
37	0x3f84e1aa	1.0381367
38	0x3f86a777	1.0519856
39	0x3f790216	0.9726881
40	0x3f8092a1	1.0044748
41	0x3f818293	1.0117973
42	0x3f845ce3	1.0340847
43	0x3f81a20b	1.0127577
44	0x3f76da6b	0.9642703
45	0x3f78e5c0	0.9722557
46	0x3f7c9b84	0.986748
47	0x3f7fddef	0.9994802
48	0x3f858ab1	1.043295
49	0x3f7b61cc	0.981961
50	0x3f7fa424	0.99859834
51	0x3f7daa5f	0.9908809
52	0x3f876ddd	1.0580403
53	0x3f837252	1.0269263
54	0x3f81b7e9	1.013425
55	0x3f8155b7	1.0104283
56	0x3f767d32	0.9628478
57	0x3f7d468b	0.98935765
58	0x3f83ba25	1.0291182
59	0x3f7c85e6	0.9864181
60	0x3f7edfb2	0.9956008
61	0x3f7b5873	0.9818184
62	0x3f88251e	1.0636327
63	0x3f81e1a9	1.0146991

layernorm1.bias f4 [64]
0	0xbbe52f48	-0.0069941618
1	0xbc5f5ef7	-0.013633481
2	0x3c774c85	0.015093927
3	0x3ca0558f	0.019572048
4	0xbc9b26e1	-0.018939437
5	0x3c8d6bb7	0.017263277
6	0xbab36f37	-0.0013689761
7	0x3cc5212d	0.024063671
8	0xbb65fa58	-0.0035091843
9	0xbc1ba8f1	-0.009500728
10	0x3c63c14f	0.013901069
11	0x3cc59363	0.024118131
12	0x3b3e9674	0.0029081376
13	0x3b3cad00	0.002878964
14	0x3cb1d450	0.021707684
15	0x3db407b4	0.08790532
16	0x3b8180a2	0.003952102
17	0x3c2a5a35	0.010397484
18	0xbb4984d6	-0.0030749342
19	0x3bb5b5ad	0.005545339
20	0x3b76bca0	0.003764905
21	0xba9f2d85	-0.0012144303
22	0x3c6416a3	0.013921413
23	0x3d9aabfb	0.07552334
24	0xbc1676ed	-0.009183628
25	0xbcfbfa3c	-0.03075897
26	0x3c053cad	0.008132142
27	0x3d0b02ca	0.033938207
28	0xbcb8f86c	-0.022579394
29	0x3c3c8830	0.011507079
30	0xbd030cc7	-0.031994607
31	0x3d59d285	0.053179283
32	0x3c9ad27c	0.018899195
33	0xbbd37732	-0.006453418
34	0xbd0773ec	-0.033069536
35	0xbc4cb829	-0.012495079
36	0x3d8d5986	0.06901841
37	0x3bdfdddb	0.006831867
38	0x3c905764	0.017619796
39	0xbd6cf251	-0.05784828
40	0xba15919f	-0.0005705598
41	0x3d07103c	0.032974467
42	0x3d969818	0.07353228
43	0x3c43887e	0.011934398
44	0xbd7441ef	-0.05963319
45	0xbc959c08	-0.018262878
46	0xbc82e4e6	-0.015978288
47	0x3c7eb459	0.015545928
48	0x3d69f48f	0.057117995
49	0xbb9c8515	-0.004776607
50	0x3bba1f30	0.0056799874
51	0xbbf8ef55	-0.00759689
52	0x3ad78c5f	0.0016445032
53	0x3cbb3569	0.022852616
54	0xbc5ac9be	-0.013353763
55	0x3baa2ccd	0.005193329
56	0xbcedf8ef	-0.029049365
57	0x3b9bc319	0.004753482
58	0x3d44e113	0.04806621
59	0x3a2d8d2e	0.00066204637
60	0x3c14ec4f	0.0090895435
61	0xbc3a8c88	-0.011386044
62	0x3db1baae	0.086781844
63	0x3c3243dd	0.010880438

blocks.0.fcn_layer.weight f4 [64, 64]
0	0xbda9d412	-0.08292402
1	0xbd8b2b39	-0.067953534
2	0x3e0bb28e	0.13642332
3	0x3d695359	0.056964252
4	0x3d17469a	0.036932565
5	0xbc5fc76f	-0.0136583885
6	0xbcf59151	-0.029976519
7	0x3e01d012	0.12677029
8	0xbd81f6a0	-0.06345868
9	0xbdaa0b63	-0.08302953
10	0xbd202851	-0.03910095
11	0xbd8d5bca	-0.06902273
12	0x3e0f2a59	0.13980998
13	0xbd8a11da	-0.06741686
14	0x3dc83663	0.097759984
15	0x3e68bc35	0.22728045
16	0x3d41f105	0.047348995
17	0x3d643687	0.055716064
18	0x3dc1bfd5	0.09460417
19	0x3d8cdd71	0.06878174
20	0xbbb645c5	-0.0055625164
21	0x3b6e897e	0.003639787
22	0xbdf148e5	-0.11781482
23	0x3e141c68	0.14463961
24	0x3d2f5636	0.042806827
25	0x3ce6c8e3	0.028171962
26	0x3e07c76d	0.13259669
27	0x3da61e0f	0.08111202
28	0x3ca28b0c	0.019841693
29	0xbde06c47	-0.10958152
30	0x3dcfd521	0.10148073
31	0x3e0edbe5	0.1395107
32	0x3e13f22a	0.14447847
33	0x3d130dfd	0.035902012
34	0x3d114822	0.03546918
35	0xb9df2058	-0.00042557972
36	0x3cef3716	0.029201072
37	0xbdb0495c	-0.08607742
38	0xbe0dc620	-0.1384511
39	0x3e23c8ac	0.15994519
40	0x3e0e8590	0.13918138
41	0x3d3f1518	0.046650976
42	0x3d5877f9	0.05284879
43	0xbd7dc15e	-0.061951987
44	0xbd65b909	-0.056084666
45	0x3ded612c	0.115908
46	0x3c027e50	0.007964686
47	0xbdac3a51	-0.084095605
48	0x3e1184c9	0.1421081
49	0xbde8b6c9	-0.113629885
50	0xbd48bcc8	-0.04900816
51	0x3ca77727	0.020442558
52	0xbcf9d5ac	-0.030497395
53	0x3dca500d	0.0987855
54	0x3d425f1e	0.047453992
55	0xbd5d50a9	-0.054032
56	0x3e0b272f	0.13589166
57	0x3e0924bc	0.1339292
58	0x3dca0aeb	0.09865364
59	0xbd3a7040	-0.045517206
60	0xbd9ad267	-0.07559662
61	0xbd7b1ba5	-0.06130566
62	0x3e04bcd2	0.12962654
63	0x3dbb0a8b	0.0913287
64	0xbc8dd38d	-0.01731279
65	0x3e1b3e45	0.15160473
66	0x3d9f3129	0.077730484
67	0x3d1b0280	0.03784418
68	0xbcb79f7d	-0.022414917
69	0xbd879901	-0.0662098
70	0xbd3f9884	-0.04677631
71	0x3d7d9898	0.061913103
72	0xbd5869b2	-0.052835174
73	0x3d814224	0.063114434
74	0x3d5677b1	0.05236024
75	0x3e07f5b3	0.1327732
76	0xbc6efce6	-0.014586663
77	0x3dd89fdc	0.10577366
78	0xbdcd77d9	-0.10032625
79	0xbddd74e3	-0.1081331
80	0x3d60d3cf	0.054889496
81	0x3d59d988	0.05318597
82	0x3c5de557	0.013543448
83	0x3d91cf76	0.07119648
84	0x3cf351ac	0.02970203
85	0xbc9b140a	-0.018930454
86	0xbd9dcae0	-0.07704711
87	0xbe414922	-0.18875554
88	0xbb3eadd8	-0.0029095318
89	0xbd3503b2	-0.044192977
90	0x3d13d1af	0.03608864
91	0x3da4c4c8	0.080453455
92	0x3da1f5ee	0.079082355
93	0xbe022b04	-0.12711722
94	0xbdb56698	-0.08857459
95	0xbe1afa99	-0.15134658
96	0xbc82ad43	-0.015951758
97	0xba3d9b8f	-0.0007232958
98	0xbdb5a447	-0.08869224
99	0xbcd77a7b	-0.02630352
100	0xbc81a076	-0.015823584
101	0x3d9283d0	0.071540475
102	0xbdf3a810	-0.1189729
103	0x3da83bff	0.08214568
104	0x3caaee8b	0.0208657
105	0xbba17cf1	-0.0049282243
106	0xbe23aa44	-0.1598292
107	0xbd8f998c	-0.070117086
108	0x3da31d28	0.079645455
109	0x3b64ce9b	0.0034913186
110	0x3cb771a0	0.022393048
111	0x3d791667	0.06081238
112	0xbe23fccb	-0.16014402
113	0xbdb19690	-0.08671296
114	0x3db28b6a	0.08717997
115	0xbccec964	-0.025242515
116	0x3c05cc15	0.008166333
117	0x3e01a5ec	0.1266095
118	0x3b99961d	0.0046870844
119	0xbd906473	-0.07050409
120	0xbaf1f94e	-0.0018461139
121	0x3c7773c1	0.0151032815
122	0xbc87ba62	-0.016568366
123	0xbdabceb0	-0.08389032
124	0xbde1bb05	-0.11021999
125	0x3de07309	0.10959441
126	0xbe0c9b59	-0.13731135
127	0xbd90dcad	-0.070733406
128	0x3d9ab6bb	0.07554384
129	0x3c3e77bb	0.011625226
130	0x3d55377d	0.05205487
131	0x3dcd5748	0.10026413
132	0x3dba857f	0.091074936
133	0x3e064912	0.13113812
134	0xbd0b7065	-0.034042735
135	0x3e1c23f3	0.15248089
136	0xbda24c26	-0.079246804
137	0x3d1eb6cb	0.038748544
138	0xbdcb088a	-0.09913738
139	0x3d5d64bd	0.05405115
140	0x3d7061f5	0.05868717
141	0xbd18b750	-0.037284195
142	0x3bed5240	0.007242471
143	0x3d75d077	0.06001326
144	0x3c15e00c	0.009147655
145	0xbda94624	-0.082653314
146	0x3cfd7331	0.030938717
147	0xbc847a84	-0.016171701
148	0xbdcb27c2	-0.099196926
149	0x3e3176af	0.1733043
150	0xbd0a7daa	-0.03381125
151	0xbd411dbd	-0.0471475
152	0x3d67cc77	0.056591477
153	0xbda39140	-0.079866886
154	0x3dbb9432	0.091591254
155	0x3dcc626e	0.099797115
156	0x3dbb51b4	0.09146443
157	0xbddd13c3	-0.10794785
158	0xbc95f907	-0.018307222
159	0xbd1817d3	-0.037132096
160	0x3e2265df	0.15859173
161	0x3c8ec2f8	0.017426953
162	0x3d7a5e32	0.061124988
163	0xbd479891	-0.048729483
164	0x3dd2d82b	0.10295137
165	0x3c079463	0.008275124
166	0xbdf66318	-0.120306194
167	0xbd4f48c8	-0.05060652
168	0x3c641507	0.013921029
169	0x3e164011	0.14672877
170	0x3dc56d99	0.09640045
171	0x3db236b3	0.08701839
172	0xbc900b80	-0.017583609
173	0xbd8a5ad9	-0.06755609
174	0xbd3a7783	-0.04552413
175	0xbd626f62	-0.055282004
176	0x3df9c5f8	0.12195963
177	0x3c2974a0	0.010342747
178	0xbdb963d0	-0.09052241
179	0x3e1abeeb	0.15111892
180	0x3c95fb57	0.018308325
181	0x3d44ba3b	0.048029166
182	0x3d50f6c4	0.051016584
183	0xbd8f5d3b	-0.07000204
184	0x3dd271ea	0.10275634
185	0x3d4e255f	0.05032861
186	0x3e02858e	0.1274626
187	0x3de336e3	0.11094453
188	0x3c42d81f	0.011892348
189	0x3cf35ff1	0.029708834
190	0xbc4bfa48	-0.012449808
191	0xbd626027	-0.05526748
192	0xbd24c2f6	-0.04022499
193	0x3d6e76ca	0.058218755
194	0xbcd32e9e	-0.025779065
195	0x3e0ec616	0.13942751
196	0x3d7f33c1	0.062305216
197	0x3e2a50c2	0.16632369
198	0x3d91420a	0.07092674
199	0xbbbfc34d	-0.005852139
200	0x3cf0c97c	0.02939295
201	0xbd52c3e5	-0.05145635
202	0xbde0c0b1	-0.10974253
203	0xbdb89246	-0.090122744
204	0x3e26446c	0.16237038
205	0xbcf1b774	-0.029506423
206	0x3d801f1b	0.06255933
207	0x3d0a1950	0.033715546
208	0xbc12f3e6	-0.008969283
209	0xbdf9b161	-0.121920355
210	0x3d8c01c4	0.06836274
211	0x3dad14ce	0.08451234
212	0x3d99cff5	0.07510368
213	0x3dcde231	0.10052908
214	0xbd8b13ce	-0.06790887
215	0x3e00a607	0.12563334
216	0xbd3b1947	-0.045678403
217	0x3de93b1b	0.113882266
218	0x3d7104be	0.058842413
219	0x3d829ff8	0.06378168
220	0xbc2824c5	-0.010262673
221	0xbd1be935	-0.0380642
222	0xba13929c	-0.00056294515
223	0x3e139f9a	0.14416352
224	0x3dbc163b	0.091839276
225	0xbc5b368f	-0.013379707
226	0xbd929020	-0.07156396
227	0x3d991d04	0.074762374
228	0xbce44bc1	-0.027868154
229	0xbc28833c	-0.010285195
230	0x3cd689ff	0.026188849
231	0x3d61b1f4	0.05510135
232	0x3ca696e9	0.020335631
233	0x3e0f83a3	0.14015059
234	0xbb321db2	-0.0027178344
235	0xbdb488ed	-0.08815179
236	0xbda506a1	-0.08057905
237	0xbae9d470	-0.00178398
238	0x3c81ad15	0.015829602
239	0xbdd7165d	-0.10502312
240	0x3db91769	0.09037668
241	0xbdc808ed	-0.097673275
242	0x3d122fa5	0.03568997
243	0x3de4f10e	0.1117879
244	0x3d4adb4a	0.049525537
245	0x3ca986bf	0.020694135
246	0x3e0c3609	0.13692488
247	0xbd905ef2	-0.070493594
248	0xbd843c69	-0.06456835
249	0x3d15b8d9	0.036553238
250	0x3d4905e8	0.0490779
251	0x3e1850b2	0.14874533
252	0xbcef7e82	-0.029235128
253	0x3d9c9acf	0.07646715
254	0x3e09c51e	0.134541
255	0xbd06ddc5	-0.03292634

blocks.0.fcn_layer.bias f4 [64]
0	0xbdae5745	-0.08512739
1	0xbc714e65	-0.014728163
2	0x3db6d616	0.089275524
3	0x3cd4386a	0.025905807
4	0xbdba0cd0	-0.09084475
5	0x3dcd4831	0.10023535
6	0xbdede6e9	-0.11616308
7	0x3cf9ee59	0.03050916
8	0x3daaab18	0.08333415
9	0xbadeb16a	-0.0016990129
10	0x3dd49feb	0.103820644
11	0xbdb6e5ab	-0.089305244
12	0x3d9d11e3	0.07669427
13	0xbd9d978e	-0.076949224
14	0xbd37a150	-0.044831574
15	0x3dfb09bd	0.12257717
16	0x3dea701c	0.114471644
17	0x3d1e7011	0.038681094
18	0x3d122653	0.03568108
19	0x3d971276	0.07376568
20	0x3dc49d0f	0.09600269
21	0xbd3ad2b4	-0.0456111
22	0xbcb5b721	-0.02218205
23	0x3cae308a	0.02126338
24	0xbd903244	-0.070408374
25	0xbd323e5b	-0.043516498
26	0x3dcd016a	0.10010035
27	0xbdbb1bdf	-0.09136175
28	0x3dca5451	0.09879363
29	0x3c763430	0.015027091
30	0x3dc62453	0.09674897
31	0xbdb5458e	-0.08851157
32	0xbd02cc02	-0.03193284
33	0x3d52d121	0.051468972
34	0x3de11b13	0.10991492
35	0xbde14188	-0.10998827
36	0xbda01528	-0.07816535
37	0x3db9d6fa	0.09074207
38	0xbdc7a390	-0.09747994
39	0xbb3d177e	-0.0028853114
40	0xbdb08469	-0.08619005
41	0xbc540dd5	-0.012942751
42	0x3d662002	0.05618287
43	0xbd7e1d99	-0.062039945
44	0xbddf09c2	-0.10890533
45	0xbdacf2bb	-0.08444735
46	0x3d989b5d	0.07451508
47	0x3dd7d840	0.10539293
48	0x3d157a3f	0.036493536
49	0x3d8040fa	0.06262393
50	0xbd90e961	-0.070757635
51	0x3dacda75	0.08440105
52	0xbdc5d1c2	-0.09659149
53	0xbde164ef	-0.1100558
54	0x3db53bb9	0.08849282
55	0xbd74ee43	-0.059797537
56	0xbbf64f4e	-0.007516778
57	0x3da0cebe	0.07851933
58	0x3b75b581	0.0037492218
59	0x3daeeb49	0.08540971
60	0xbdd7759e	-0.105204806
61	0x3e002e8b	0.12517755
62	0x3d79d302	0.06099225
63	0x3ddf3063	0.10897901

blocks.0.layer_norm.weight f4 [64]
0	0x3f938bb6	1.1527011
1	0x3f7fed25	0.9997123
2	0x3f9190ae	1.1372278
3	0x3f8998ae	1.0749719
4	0x3f754d9d	0.95821553
5	0x3f7eef7d	0.9958418
6	0x3f898d97	1.0746335
7	0x3f867cea	1.0506871
8	0x3f8a068e	1.078325
9	0x3f952fe4	1.165524
10	0x3f98b38f	1.1929797
11	0x3f8d3717	1.1032437
12	0x3f9cd150	1.2251377
13	0x3f8c4ca2	1.0960886
14	0x3f9488ed	1.1604286
15	0x3f90d5fe	1.1315305
16	0x3fa0410f	1.2519854
17	0x3f933f18	1.150363
18	0x3f936aea	1.1517003
19	0x3f8749be	1.0569379
20	0x3f9b2b0c	1.2122512
21	0x3f98e855	1.1945902
22	0x3f8a419d	1.0801274
23	0x3f892eaa	1.0717366
24	0x3f96652d	1.1749626
25	0x3f8dfe22	1.109318
26	0x3f981916	1.1882656
27	0x3f885606	1.0651252
28	0x3f91740d	1.1363541
29	0x3f8a62d6	1.0811412
30	0x3f94ddb9	1.1630164
31	0x3f868ec2	1.0512316
32	0x3f814bf8	1.0101309
33	0x3f92f79d	1.1481816
34	0x3f8d6702	1.104706
35	0x3f89d91d	1.0769383
36	0x3f8c6e54	1.097117
37	0x3f8f7a31	1.1209165
38	0x3f84b872	1.0368788
39	0x3f97f71b	1.1872286
40	0x3f8a3699	1.0797912
41	0x3f85249b	1.0401796
42	0x3f8ba705	1.0910345
43	0x3f8aabb7	1.0833653
44	0x3f9019b1	1.125784
45	0x3f8dc0a3	1.1074413
46	0x3f886b7e	1.0657804
47	0x3f9499e8	1.1609468
48	0x3f8d91c2	1.1060107
49	0x3f890a26	1.0706222
50	0x3f8549bf	1.041313
51	0x3f86f545	1.05436
52	0x3f8ed5d2	1.1159003
53	0x3f8fd9ed	1.1238381
54	0x3f857af2	1.0428145
55	0x3f925695	1.1432673
56	0x3f8915ba	1.0709755
57	0x3f880451	1.0626317
58	0x3f91919b	1.137256
59	0x3f86e476	1.0538471
60	0x3f8d0837	1.1018132
61	0x3f665909	0.89979607
62	0x3f94ac12	1.1615012
63	0x3f8a721a	1.0816071

blocks.0.layer_norm.bias f4 [64]
0	0x3daafdbc	0.08349177
1	0xbca23b9b	-0.019803813
2	0x3dad485d	0.08461068
3	0x3d1e9322	0.038714536
4	0xbdba9a00	-0.091114044
5	0xbc4738b3	-0.012159514
6	0x3d3044e3	0.043034445
7	0xbb9c83a3	-0.0047764345
8	0x3caebeab	0.021331152
9	0x3e0653d2	0.13117912
10	0x3e1512ca	0.14557949
11	0xbd07b932	-0.0331356
12	0x3e2ef207	0.17084514
13	0x3d703946	0.05864837
14	0x3e03ac91	0.12858798
15	0x3d68a55e	0.05679833
16	0x3e242df2	0.16033152
17	0x3d9c220f	0.07623684
18	0x3e056b0d	0.13029118
19	0x3d01cd32	0.03168983
20	0x3e193a8b	0.14963739
21	0x3e0e9fd0	0.13928151
22	0x3d68e074	0.05685468
23	0x3d8091c4	0.062778026
24	0x3e17b0a8	0.14813483
25	0x3d01d440	0.031696558
26	0x3e210605	0.15724953
27	0x3c1b7e7a	0.009490604
28	0x3e0fc2b0	0.14039111
29	0x3d0d0248	0.034426004
30	0x3e077343	0.13227563
31	0x3d15dbf2	0.03658671
32	0xbbb5bfff	-0.0055465694
33	0x3e05e4f8	0.13075626
34	0x3c3f1b96	0.011664292
35	0x3ce3418d	0.027741218
36	0x3d8ba774	0.068190485
37	0x3c69955c	0.014256801
38	0x3c123f67	0.008926249
39	0x3e22386e	0.15841839
40	0x3d2635f5	0.0405788
41	0x3cf21bc5	0.029554257
42	0x3cb52d11	0.022116216
43	0x3d4debc3	0.050273668
44	0x3d121ec2	0.035673864
45	0x3d8c8e3f	0.06863069
46	0x3cf0d089	0.029396312
47	0x3e0a618e	0.13513777
48	0x3d3e5311	0.046465937
49	0x3bce5cc9	0.006297682
50	0xbc9b4d87	-0.018957866
51	0x3cc9d08c	0.024635576
52	0x3d68dffa	0.056854226
53	0x3d6ec03e	0.058288805
54	0x3d1c7bec	0.03820412
55	0x3d5bc6d6	0.05365642
56	0x3cf39b6e	0.0297372
57	0x3b2b3ef2	0.0026130048
58	0x3e02f051	0.12786986
59	0x3c2e47a2	0.010637196
60	0x3c139eb4	0.009010006
61	0xbdc3cbf7	-0.095603876
62	0x3e0e224d	0.13880272
63	0x3d28af79	0.04118297

last_layer.weight f4 [1, 64]
0	0x3e318970	0.17337584
1	0x3c823135	0.015892604
2	0x3e1f7d31	0.155751
3	0x3e46d591	0.19417407
4	0xbc97719f	-0.018486796
5	0x3ca35a19	0.019940423
6	0x3e122b90	0.1427443
7	0x3e321c34	0.17393571
8	0x3dbd36cb	0.092389666
9	0xbe7b7238	-0.2455529
10	0xbe5d30b2	-0.21600607
11	0x3e56976d	0.20956202
12	0xbe571e33	-0.21007614
13	0x3d8cf124	0.068819314
14	0xbe751b2c	-0.23936146
15	0x3defb73b	0.1170487
16	0xbe7696b8	-0.24080932
17	0x3dd8e393	0.10590281
18	0xbe665db9	-0.2249669
19	0x3df5e59b	0.120066844
20	0xbe75579f	-0.23959206
21	0xbe76e894	-0.24112159
22	0x3e313147	0.17303954
23	0x3db8dcf3	0.09026518
24	0xbe478d79	-0.19487561
25	0x3dd1a565	0.10236625
26	0xbe5b73a0	-0.21430826
27	0x3d93e2fc	0.07221028
28	0xbe3e5a7e	-0.18589208
29	0x3de38016	0.11108415
30	0xbe726319	-0.23670615
31	0x3e072bc1	0.13200285
32	0x3e028064	0.1274429
33	0xbe6a7c3d	-0.22898956
34	0x3e29161b	0.16512339
35	0x3e131eda	0.14367238
36	0x3dc5d358	0.09659451
37	0x3e0a6be3	0.13517718
38	0x3d6b9472	0.057514615
39	0xbe3db2d2	-0.18525246
40	0x3deb8c65	0.115013875
41	0x3e054e14	0.13018066
42	0x3e595ea1	0.21227504
43	0x3e1537af	0.14572023
44	0x3df983ed	0.12183366
45	0x3e1dd897	0.15414654
46	0x3e314271	0.17310502
47	0xbe557550	-0.20845532
48	0x3e40c65f	0.18825673
49	0x3dbe62e2	0.09296204
50	0x3e08503b	0.13311855
51	0x3dd46e3c	0.10372588
52	0x3e3e94b2	0.1861141
53	0x3df25e1b	0.118343554
54	0x3d94ebc3	0.072715305
55	0x3dfd71c7	0.12375217
56	0x3e374dde	0.17900798
57	0x3e0703a2	0.1318498
58	0xbe621338	-0.22077644
59	0x3dd9b569	0.10630304
60	0x3e452a4a	0.19254413
61	0x3c3dc19d	0.011581806
62	0xbe5a3a73	-0.21311359
63	0x3d8e1574	0.069376856
